Game/Assets/Models/EnemyBehavior.onnx (onnx, 80208 bytes, 10 tensors)

network_body.observation_encoder.processors.0.normalizer.running_mean f4 [8]
0	0x440feffc	575.74976
1	0x3ff3d5f3	1.9049667
2	0x43ee78bd	476.94327
3	0x440e56b1	569.35455
4	0x3eeb4f62	0.45959002
5	0x43f182d0	483.02197
6	0x3c50bd35	0.012740423
7	0xbd2988de	-0.041390292

network_body._body_endoder.seq_layers.0.weight f4 [128, 8]
0	0xbe9ce21b	-0.30641255
1	0x3ea67a83	0.32515344
2	0x3f16b8aa	0.58875525
3	0xbe568f36	-0.20953068
4	0x3e035b89	0.12827887
5	0x3e6c0470	0.23048568
6	0xbed52bb2	-0.416349
7	0xbf07767c	-0.5291517
8	0x3e54f77e	0.20797536
9	0xbdf261a2	-0.11835028
10	0xbee33063	-0.44372854
11	0x3c20b0f6	0.009807816
12	0xbf114fb2	-0.5676223
13	0x3de08e11	0.10964597
14	0x3d65affd	0.05607604
15	0x3cd38946	0.025822293
16	0xbef42e77	-0.476917
17	0xbead22da	-0.33815652
18	0xbc24fc54	-0.010069925
19	0x3ef26adb	0.4734715
20	0xbe5664bc	-0.20936865
21	0xbe87791e	-0.26459593
22	0x3e924d90	0.285748
23	0x3f365976	0.71230257
24	0x3eb3a663	0.3508788
25	0x3f89d107	1.0766915
26	0xbd148aa5	-0.036265034
27	0x3e88f179	0.2674673
28	0x3e1e2740	0.1544466
29	0xbec7d30d	-0.39028206
30	0x3e917918	0.284127
31	0x3e11a419	0.14222755
32	0x3e17a939	0.14810647
33	0xbf792d05	-0.9733432
34	0x3e6e0e06	0.23247537
35	0x3d604aec	0.05475895
36	0x3f2082ab	0.62699383
37	0x3e9e8b63	0.3096572
38	0x3db85628	0.09000808
39	0x3e7cdf34	0.2469452
40	0x3e233902	0.15939716
41	0x3df186ab	0.11793264
42	0x3e50939b	0.20368807
43	0x3d658136	0.05603143
44	0x3f352878	0.70764875
45	0x3e34e6ca	0.17666164
46	0xbe15870f	-0.14602302
47	0xbf084020	-0.53222847
48	0xbe730f20	-0.23736238
49	0x3eeb247c	0.45926273
50	0xbef8c37a	-0.48586637
51	0xbd9c915b	-0.07644912
52	0x3ea9cbf1	0.33163407
53	0xbea5760a	-0.3231662
54	0xbea9bca1	-0.33151725
55	0x3e0cec69	0.13762058
56	0xbd4823cf	-0.048862275
57	0xbd42bf0d	-0.04754548
58	0xbe93162c	-0.28727853
59	0xbe10b6ec	-0.14132279
60	0xbb3d94bb	-0.0028927762
61	0xbec213fa	-0.37905866
62	0xbea87561	-0.32902053
63	0xbf9595c9	-1.1686336
64	0xbcee105c	-0.029060535
65	0x3efd95bd	0.49528304
66	0xbe5a16fd	-0.21297832
67	0x3ed69435	0.41909948
68	0xbe28ad63	-0.16472392
69	0xbe2dce4e	-0.1697323
70	0xbef62db7	-0.48081753
71	0xbec332cc	-0.38124692
72	0x3c9e2e25	0.019309113
73	0xbe1e5bed	-0.15464754
74	0x3e9c2cdd	0.30502978
75	0xbd1979a9	-0.03746954
76	0x3e1c3aba	0.15256777
77	0x3db3d8e0	0.087816
78	0xbf14158e	-0.5784539
79	0x3e799d68	0.24376452
80	0x3e878838	0.26471114
81	0xbf5ac2cf	-0.85453504
82	0xbb80d3f0	-0.003931515
83	0xbd551f26	-0.05203166
84	0xbcc88c84	-0.024481066
85	0x3e8b1f09	0.27172115
86	0x3d4af6ee	0.049551897
87	0x3e6a45c7	0.2287818
88	0xbeae2c97	-0.34018394
89	0x3e8d81bc	0.27638042
90	0x3eb02696	0.3440444
91	0xbf524e33	-0.8215057
92	0xbdbc6d38	-0.09200519
93	0xbd4dd044	-0.050247446
94	0xbe3e97d4	-0.18612605
95	0x3eb7b071	0.35876802
96	0xbf64de68	-0.89401865
97	0x3e83c8f1	0.25739244
98	0xbf02fde8	-0.5116868
99	0x3f050d46	0.5197338
100	0xbe0a9b9b	-0.13535921
101	0x3e046ebf	0.12932871
102	0x3f07ad1b	0.52998513
103	0x3e08805d	0.13330217
104	0xbece9f2b	-0.4035581
105	0xbebf2b07	-0.37337515
106	0x3f0df344	0.5544932
107	0x3a2353f4	0.00062304665
108	0x3d9e7845	0.07737783
109	0xbede29b4	-0.43391192
110	0x3e873f1a	0.2641533
111	0x3f5e5d45	0.8686107
112	0xbf4a7ea5	-0.79099494
113	0x3d0e00f5	0.03466888
114	0x3f1b824a	0.6074568
115	0xbe040e97	-0.1289619
116	0x3f2dbccd	0.6786621
117	0xbded2062	-0.11578442
118	0xbcf05277	-0.029336197
119	0x3f289a4c	0.6586044
120	0x3ddeb921	0.10875154
121	0x3e9a1c70	0.3009982
122	0xbe8ea6cc	-0.2786163
123	0x3e701991	0.23447253
124	0xbeb1ba4a	-0.3471244
125	0x3d3275d4	0.0435694
126	0xbe7d6668	-0.24746096
127	0x3e30726b	0.17231147
128	0x3e0ff377	0.14057718
129	0x3e106d80	0.14104271
130	0x3dfcfe77	0.12353223
131	0x3e4f2161	0.20227577
132	0xbf759277	-0.9592661
133	0xbcfcd835	-0.030864814
134	0xbf4fdc2a	-0.8119532
135	0x3ea52cbb	0.3226069
136	0x3e1fa626	0.15590724
137	0xbc64052a	-0.013917247
138	0x3e8d28f8	0.2757032
139	0xbe897d41	-0.26853374
140	0xbc8fa1a9	-0.01753314
141	0xbdc29771	-0.095015414
142	0xbed3d314	-0.41371977
143	0x3c5b33a6	0.013379013
144	0xbe802ad8	-0.25032687
145	0xbea49b4f	-0.3214974
146	0xbe8351d1	-0.25648358
147	0x3e4941aa	0.19653955
148	0x3e02a730	0.1275909
149	0x3f279777	0.6546549
150	0xbec97e80	-0.39354324
151	0xbe97ddfa	-0.29661542
152	0x3e9b7762	0.3036452
153	0x3dfc093f	0.12306451
154	0x3eab64af	0.33475253
155	0xbedbd748	-0.42937684
156	0x3dc2a0bb	0.09503313
157	0x3dcfcac9	0.101461
158	0xbedba734	-0.42901003
159	0x3edb6c48	0.4285605
160	0xbde43924	-0.11143711
161	0x3e38445e	0.1799483
162	0x3de3cfec	0.11123642
163	0x3f16ef2f	0.58958715
164	0x3e0fc5a9	0.14040245
165	0x3e5f8dbf	0.21831416
166	0xbed86346	-0.4226324
167	0xbf6e443e	-0.9307288
168	0x3e914f67	0.28380892
169	0xbf3e7f15	-0.7441266
170	0xbec1b50a	-0.37833434
171	0x3da1e77d	0.07905481
172	0x3eeb6580	0.45975876
173	0x3ec7f060	0.3905058
174	0xbdb4f484	-0.088357
175	0x3df04945	0.11732725
176	0xbe45794e	-0.19284555
177	0x3ae2729d	0.0017276589
178	0x3e403072	0.1876848
179	0x3f0ddc48	0.5541425
180	0x3e81d88a	0.2536052
181	0x3eb9dad2	0.3629976
182	0xbe4a815a	-0.19775906
183	0xbed86b67	-0.4226944
184	0x3f218d9f	0.6310672
185	0x3ebb68c0	0.36603355
186	0x3e59c544	0.21266657
187	0x3dac81cf	0.084231965
188	0xbc044efb	-0.008075471
189	0xbf5fa7c4	-0.87365365
190	0xbe12871a	-0.1430935
191	0xbe1aaa03	-0.15103917
192	0x3de3cd11	0.11123098
193	0x3db6788f	0.089097135
194	0x3f165574	0.5872414
195	0x3c1edc65	0.009696101
196	0xbd1a0646	-0.03760364
197	0xbe0fe771	-0.14053132
198	0x3ddb0e84	0.10696128
199	0xbec0e576	-0.37675065
200	0x3f5ac587	0.8545765
201	0x3e7ba1c2	0.24573424
202	0x3f5f6ab2	0.8727218
203	0x3f87ef4e	1.0619905
204	0xbd4dc526	-0.050236844
205	0x3dc47004	0.09591678
206	0xbf2a1736	-0.6644167
207	0xbe4299a7	-0.19003926
208	0xbf19844d	-0.599675
209	0xbdc245f6	-0.09486
210	0x3d3e8ff0	0.04652399
211	0xbe9483cd	-0.29006806
212	0x3e1532ff	0.14570235
213	0xbdd75eda	-0.105161384
214	0x3df718e9	0.12065298
215	0x3f1333f7	0.5750117
216	0xbe9d4877	-0.3071935
217	0x3f135d69	0.5756441
218	0x3d76404f	0.060119923
219	0xbe7d169a	-0.24715653
220	0x3ee4baa3	0.44673643
221	0xbd35916d	-0.044328142
222	0xbe6ddb63	-0.2322822
223	0xbde25521	-0.11051393
224	0xbe26322f	-0.16230081
225	0x3cf3404e	0.029693749
226	0xbed098de	-0.40741628
227	0xbd3633b4	-0.0444829
228	0x3edc6603	0.4304658
229	0xbd732aa3	-0.059366833
230	0x3ecb4eb4	0.39708483
231	0xbe47b9fb	-0.1950454
232	0x3f2fc1c5	0.68655044
233	0xbe141153	-0.14459734
234	0xbf1e2fa6	-0.61791456
235	0x3cc45861	0.023967924
236	0xbef56d70	-0.47935057
237	0xbd07629b	-0.033053022
238	0xbedc1ff4	-0.42993128
239	0xbe73ab37	-0.23795782
240	0x3eb37e1d	0.35057154
241	0xbc10edd7	-0.008845768
242	0xbe88b0a3	-0.26697263
243	0x3db97009	0.09054572
244	0x3d165e5c	0.03671108
245	0xbebfe6de	-0.37480825
246	0xbcd7c186	-0.026337396
247	0x3ee2c867	0.4429352
248	0xbd0a8a25	-0.03382315
249	0xbe0b6b36	-0.13615116
250	0xbcca7658	-0.024714634
251	0xbd614dd9	-0.055005882
252	0xbf13013b	-0.5742375
253	0xbec9abaa	-0.39388782
254	0xbf1f0957	-0.62123626
255	0xbf4028b6	-0.7506212

network_body._body_endoder.seq_layers.0.bias f4 [128]
0	0xbcd952a6	-0.026528668
1	0x3c05b001	0.008159638
2	0xbcc851de	-0.0244531
3	0xbc90c639	-0.017672645
4	0xbb550fbb	-0.0032510597
5	0x38cdc1aa	9.8112345e-05
6	0xbb2e1bde	-0.0026566903
7	0xbca7f8d0	-0.020504385
8	0x3c23bfb2	0.009994434
9	0xbc823825	-0.015895912
10	0xbb0ddc3a	-0.0021646158
11	0xbcb9848d	-0.022646213
12	0x3cd50083	0.02600122
13	0xbc6fc2b1	-0.01463382
14	0x3c509f5a	0.012733305
15	0xbb60f33d	-0.0034324669
16	0x3bc4d533	0.0060068606
17	0xbc90dbd1	-0.017682942
18	0xbcac64af	-0.021044103
19	0x3bbfc147	0.005851898
20	0xbc73ea47	-0.014887399
21	0xbc8c4eb2	-0.017127369
22	0x3bd69330	0.006548308
23	0xbc11d6ec	-0.008901339
24	0x3c102df8	0.008800022
25	0xbc4916fb	-0.012273545
26	0xbc9d040c	-0.019166969
27	0xbc51509b	-0.0127755655
28	0xbcc68890	-0.02423504
29	0xbb3d5b1c	-0.0028893417
30	0xbb8942c4	-0.0041888673
31	0x3baaa758	0.005207937
32	0xbd096be4	-0.03355016
33	0xbc24c868	-0.010057546
34	0x3c12307e	0.008922694
35	0xbc6ef716	-0.014585277
36	0x3c08b299	0.008343362
37	0xbcac6bb7	-0.021047456
38	0xbcd6f414	-0.026239432
39	0x3b14d4e0	0.0022709891
40	0x3c47f758	0.012204967
41	0x3bacea3b	0.005276946
42	0xbc77dd42	-0.015128436
43	0xbc82732e	-0.015924063
44	0x3ad3565f	0.0016123763
45	0xbc17f837	-0.009275488
46	0xbc01ae46	-0.007915085
47	0xbc6a6922	-0.014307292
48	0xbb6bd130	-0.003598284
49	0xbceef71b	-0.029170563
50	0x3bc59774	0.0060300175
51	0xbc466f40	-0.012111485
52	0xbc4139d6	-0.011793574
53	0xbcd51e58	-0.026015446
54	0xbd171c7b	-0.036892395
55	0x3c30a10e	0.010780586
56	0x3c8114e0	0.015757024
57	0x3c034f49	0.0080145085
58	0x3bc16ed2	0.0059031034
59	0xbc8f9f29	-0.017531948
60	0xbc889052	-0.01667038
61	0xbc801b23	-0.01563794
62	0xbd193833	-0.03740711
63	0xbc32608d	-0.010887277
64	0x3c8f0e72	0.017462943
65	0xbb97d00c	-0.0046329554
66	0x3b41e41d	0.002958543
67	0xbcc19385	-0.023629913
68	0xbc420fcc	-0.011844587
69	0xbcff0b74	-0.031133391
70	0xbc470cbd	-0.012149033
71	0x3b1bde26	0.0023783534
72	0xbcce6721	-0.02519566
73	0x3b8c9e51	0.0042913337
74	0xbbc33c16	-0.0059580905
75	0xbd0b7630	-0.03404826
76	0xbc41ac26	-0.011820829
77	0x3b3c300f	0.0028715169
78	0x3bd9fc20	0.00665237
79	0x3c7037d4	0.014661748
80	0xbd34841c	-0.0440713
81	0x3992675f	0.00027924308
82	0x3c9c44d7	0.019075794
83	0xbc8f291d	-0.017475659
84	0xbc57f8ac	-0.013181847
85	0xb93ff078	-0.00018304761
86	0xbc6aa09c	-0.014320519
87	0xba0e98ef	-0.0005439659
88	0x3b43eff9	0.0029897674
89	0x3b480dae	0.0030525732
90	0x3c7e2cc6	0.0155136045
91	0xbbb4a357	-0.0055126357
92	0x3c82cfd8	0.015968248
93	0xbbafae37	-0.005361344
94	0x3b141582	0.0022595827
95	0x3c70a4fb	0.014687772
96	0x3c615095	0.013752122
97	0xbb2fc2de	-0.002681903
98	0x3c189805	0.009313588
99	0xbc68f66f	-0.014218911
100	0xbb9ca4a9	-0.004780371
101	0x3b37a9cc	0.002802479
102	0x3c376235	0.011192848
103	0x3c96c25f	0.01840323
104	0xbcfcb35d	-0.030847246
105	0xbbf1325b	-0.007360739
106	0xbb481145	-0.0030527872
107	0xbc7d9294	-0.0154768415
108	0xbce612c9	-0.02808513
109	0xbcbe52d1	-0.02323285
110	0x3c18be8c	0.009322774
111	0xbcb6584f	-0.022258906
112	0xbc8fe8e4	-0.017567106
113	0xbcdb4aa2	-0.026768986
114	0xbbb90a57	-0.0056469846
115	0xbc808a8b	-0.015691062
116	0xbb1732a2	-0.002307095
117	0xbcd78b0e	-0.026311424
118	0x3b0901ae	0.0020905542
119	0x3b3c9c46	0.002877967
120	0x3c203078	0.009777181
121	0xbbbed84a	-0.0058241235
122	0xbb4b01ae	-0.0030976343
123	0xbc6cca43	-0.01445252
124	0xbc4a19c9	-0.012335249
125	0x3ba11ea4	0.0049169827
126	0x3b84e0b5	0.0040551075
127	0xba15417c	-0.0005693657

network_body._body_endoder.seq_layers.2.weight f4 [128, 128]
0	0xbb39b399	-0.0028335808
1	0xbb96d93a	-0.004603532
2	0xbd687c14	-0.056758955
3	0x3e3a0d9d	0.18169256
4	0x3cc3a5ee	0.023882832
5	0xbd8404cd	-0.06446228
6	0x3d9d8a0b	0.07692345
7	0x3e878927	0.26471826
8	0x3d4fc711	0.050726954
9	0x3da57270	0.08078468
10	0xbd93588d	-0.07194624
11	0xbd495731	-0.049155418
12	0x3ae15e09	0.0017194162
13	0xbcafb9e7	-0.02145095
14	0x3d56b442	0.052418
15	0x3d829dc3	0.06377747
16	0xbdb52bcd	-0.08846245
17	0x3cad630b	0.021165391
18	0x3e1f1eef	0.15539144
19	0xbc9256d1	-0.017863663
20	0xbd01b6d2	-0.03166849
21	0xb9bf5d19	-0.00036499722
22	0x3dadafe3	0.08480813
23	0xbcc1625b	-0.02360647
24	0xbd8dfc7e	-0.06932925
25	0x3cb46567	0.022021009
26	0x3e52e025	0.20593317
27	0xbc9f6a1f	-0.019459782
28	0x3d66b477	0.05632445
29	0xbdbda50c	-0.09259996
30	0x3d19ed4d	0.037579823
31	0x3df71f9a	0.120665744
32	0xbd0327f4	-0.032020524
33	0x3ce961ec	0.028489076
34	0x3db9d789	0.09074313
35	0xbc83f0cb	-0.01610603
36	0xbcb7a375	-0.02241681
37	0xbc402f6c	-0.011730056
38	0xbbe9dfc4	-0.0071372706
39	0x3caba4ae	0.020952549
40	0x3c499f34	0.012306023
41	0xbe24f1df	-0.16107891
42	0x3c8bec5c	0.017080478
43	0xbd9fd03f	-0.07803392
44	0xbe2233c2	-0.15840057
45	0x3d231fad	0.03982513
46	0xbdee4131	-0.11633528
47	0x3d072a81	0.03299952
48	0xbd84659f	-0.06464695
49	0xbd94b512	-0.07261099
50	0xbe425e0f	-0.18981193
51	0x3c837d74	0.016051032
52	0x3c6aa665	0.014321898
53	0x3c726de6	0.01479671
54	0x3df5b01c	0.11996481
55	0x3bb0ce96	0.0053957207
56	0xbe1d50ea	-0.15362898
57	0xbdb3e566	-0.08783989
58	0xbd78fd7c	-0.060788617
59	0x3dccc1f3	0.099979304
60	0xbe017c16	-0.12644991
61	0xbd7a9211	-0.061174456
62	0xbdd3e3fc	-0.10346219
63	0xbe03bb35	-0.12864383
64	0x3dbd3e5b	0.09240409
65	0xbd79fab0	-0.06103009
66	0x3cc64c24	0.024206229
67	0xbd95b54d	-0.07309971
68	0x3d0ce614	0.034399107
69	0xbcf65724	-0.030070849
70	0x3dda7d17	0.1066839
71	0xbdeb0cfb	-0.11477085
72	0xbd60635e	-0.054782264
73	0xbe112169	-0.14172901
74	0x3ab0327a	0.0013442778
75	0x3c82574c	0.015910767
76	0xbddab764	-0.1067951
77	0x3cc9a86d	0.024616444
78	0x3b2717cd	0.0025496364
79	0xbd05f950	-0.032708466
80	0xbd6d7db1	-0.057981197
81	0xbd1c14b1	-0.03810567
82	0xbdf9b923	-0.12193515
83	0xbe180f0a	-0.14849487
84	0xbd45a50d	-0.048253108
85	0x3e029a4d	0.12754174
86	0x3dd515df	0.10404562
87	0x3e67e8a5	0.2264734
88	0x3dcb431b	0.09924909
89	0x3e034cc7	0.12822257
90	0x3cbd6e4a	0.023123879
91	0xbe47b8eb	-0.19504134
92	0xbe2283ea	-0.15870634
93	0xbd01c5f9	-0.031682942
94	0x3d076f83	0.03306533
95	0xbd185170	-0.03718704
96	0x3c92dd48	0.01792778
97	0xbcd4da1a	-0.025982905
98	0x3bdecd17	0.006799351
99	0x3d28a363	0.041171443
100	0x3b89c818	0.0042047612
101	0x3d891b53	0.06694665
102	0xbcb66442	-0.022264604
103	0xbe1549fe	-0.14579007
104	0x3d19d838	0.037559718
105	0x3d87c8aa	0.066300705
106	0x3de4ab2d	0.11165462
107	0x3d14f227	0.036363747
108	0x3e771ed7	0.24132858
109	0xbc9c5ae7	-0.019086314
110	0x3d3a158f	0.045430716
111	0x3d393e16	0.045225225
112	0xbc308548	-0.010773964
113	0x3ceafcf8	0.028685078
114	0xbd3e1d4d	-0.046414662
115	0x3cc138e8	0.023586705
116	0x3def6546	0.11689238
117	0xbcb583c8	-0.022157565
118	0x3da8ad7b	0.08236214
119	0xbcae48b3	-0.0212749
120	0xbcb238ad	-0.02175554
121	0x3bc77331	0.00608673
122	0xbcdd8078	-0.027038798
123	0xbdaa0d33	-0.08303299
124	0x3e192c36	0.14958271
125	0x3d1bcf8e	0.038039736
126	0xbddceda1	-0.107875116
127	0xb7796c7d	-1.4866816e-05
128	0x3d73ffd6	0.059570156
129	0xbb264111	-0.0025368372
130	0x3defed3c	0.11715171
131	0x3de72770	0.11286819
132	0x3d4b6127	0.0496532
133	0xbc4301bd	-0.01190227
134	0xbe1f1c7f	-0.15538214
135	0xbdc52c0d	-0.09627543
136	0xbc194939	-0.009355837
137	0xbdb60e28	-0.08889419
138	0x3d9a4b1f	0.075338595
139	0x3c87ce0a	0.01657774
140	0xbcaa12e5	-0.020760963
141	0x3d0f5d64	0.035001174
142	0xbc0b8bcc	-0.008517217
143	0xbd9913b8	-0.07474464
144	0x3e588ad5	0.2114671
145	0xbe0e9460	-0.13923788
146	0x3ca7bd09	0.020475881
147	0x3bd787aa	0.0065774517
148	0xbca298e5	-0.019848296
149	0xbd9d39f5	-0.0767707
150	0xbd2df343	-0.04246832
151	0x3d8b6db2	0.06808032
152	0x3c74312d	0.014904303
153	0x3de497b2	0.11161746
154	0x3e11d8d0	0.14242864
155	0xbd54818a	-0.05188135
156	0xbd37a528	-0.04483524
157	0xbe704b1e	-0.23466155
158	0xbd1f91f9	-0.03895757
159	0xbde11b6b	-0.10991558
160	0xbe12b40a	-0.14326492
161	0xbd4dbee1	-0.050230864
162	0x3e0ee900	0.1395607
163	0xbd66efdb	-0.056381088
164	0xbdbbbce0	-0.091668844
165	0xbd8a0c28	-0.067406
166	0x3d6a0bb5	0.05714007
167	0x3cb5c478	0.02218841
168	0x3d3377fd	0.0438156
169	0xbd8bda54	-0.06828752
170	0xbcdf88ae	-0.027286854
171	0xbd09072b	-0.0334541
172	0x3d088ee3	0.033339392
173	0xbbe7c0af	-0.00707253
174	0x3e5e7ee3	0.21728091
175	0x3b525514	0.0032094168
176	0xbc43d2d2	-0.011952119
177	0xbba0a3c3	-0.0049023344
178	0x3e43193e	0.19052598
179	0xbcc9226a	-0.024552543
180	0x3dd3faaf	0.103505485
181	0x3d27cf8f	0.040969428
182	0x3cc8f59a	0.024531174
183	0x3d39884d	0.045296002
184	0xbdf51b11	-0.11968053
185	0xbd020334	-0.031741336
186	0xbdabefd6	-0.083953544
187	0xbdb4b410	-0.08823407
188	0xbd099874	-0.033592656
189	0x3bdafab4	0.006682718
190	0xbdd8efaf	-0.10592591
191	0x3b9be69f	0.004757717
192	0xbd5925ee	-0.05301469
193	0xbd2194b8	-0.03944847
194	0xbc94e94c	-0.01817765
195	0x3d2b6128	0.041840702
196	0xbb858309	-0.0040744585
197	0x3d5da59d	0.05411302
198	0xbc1615c6	-0.009160465
199	0xbe1e546f	-0.15461896
200	0xbd1b750f	-0.037953433
201	0xbdc738b2	-0.09727611
202	0xbcad97f3	-0.02119062
203	0xbd0e5fc3	-0.034759294
204	0xbe1be5b0	-0.15224338
205	0xbe0ade5d	-0.13561387
206	0xbc7cee30	-0.015437648
207	0xbd7d67da	-0.06186662
208	0x3b84bdfa	0.0040509673
209	0xbe277a14	-0.16355163
210	0x3cd842e4	0.026399083
211	0x3e409d04	0.18809897
212	0x3d8b9955	0.06816355
213	0x3cdbfc3c	0.026853673
214	0xbd9958fc	-0.074876755
215	0x3dbe56be	0.092938885
216	0x3e5e3f34	0.21703798
217	0x3e470278	0.19434536
218	0x3d683b5b	0.05669723
219	0xbdbe1cc5	-0.09282831
220	0x3db82acd	0.089925386
221	0xbd36480d	-0.044502307
222	0xbd778a17	-0.060434427
223	0xbd826986	-0.06367783
224	0xbdb509c7	-0.088397555
225	0xbdacd705	-0.08439449
226	0xbd314293	-0.04327638
227	0x3c099ee5	0.0083997
228	0x3cb05c10	0.021528274
229	0x3d3c4ca5	0.04597153
230	0x3dee4b1d	0.116354205
231	0x3e1696f5	0.14706023
232	0x3de210b2	0.11038341
233	0xbc2d1e62	-0.010566326
234	0xbd9184fa	-0.071054414
235	0x3d4306a4	0.047613755
236	0x3d01876b	0.031623285
237	0x3cfb847f	0.030702827
238	0xbdb33247	-0.08749824
239	0x3d24a7f4	0.040199235
240	0xbdb11b9d	-0.08647845
241	0xbd2d54a7	-0.04231706
242	0xbe115077	-0.14190851
243	0x3dc5c321	0.096563585
244	0x3b2f6595	0.0026763428
245	0xbd9fd80a	-0.07804878
246	0xbcb48e37	-0.02204047
247	0xbb3b4430	-0.0028574578
248	0x3d55c0f1	0.052185956
249	0x3d5e2fc3	0.054244768
250	0xbdee2bb1	-0.11629427
251	0x3dcb761b	0.09934636
252	0x3d6413b2	0.055682845
253	0x3e216f64	0.15765148
254	0x3d3bf076	0.04588362
255	0xbc925a46	-0.017865311

network_body._body_endoder.seq_layers.2.bias f4 [128]
0	0xbc991035	-0.018684486
1	0x3bd3d00f	0.0064640115
2	0x3b4fb406	0.0031692996
3	0xbc9874e9	-0.018610435
4	0xbbf465d2	-0.007458427
5	0x3c29659f	0.01033917
6	0xbc7b5409	-0.01533986
7	0xbc39a16d	-0.011329991
8	0xba8d57dd	-0.0010783632
9	0xbcb9da21	-0.02268702
10	0xbbd444c5	-0.0064779245
11	0xbbe9fdf1	-0.007140868
12	0xbd2e8224	-0.04260458
13	0x3be315b6	0.0069300784
14	0x39be38c9	0.00036281932
15	0xba5e9cc8	-0.000849199
16	0xbccf12fb	-0.025277605
17	0xbcba0298	-0.022706315
18	0x3bfce613	0.0077178567
19	0xbb9c9500	-0.0047785044
20	0xbcb7f1d9	-0.02245419
21	0x3aa4ca82	0.0012572559
22	0xba3f8ef4	-0.00073073735
23	0xbd0429eb	-0.03226654
24	0xbc6fbc5d	-0.014632312
25	0xbce60bd1	-0.028081806
26	0xba71de70	-0.0009226566
27	0xbbd191a2	-0.0063955346
28	0xbc57c1ef	-0.013168796
29	0xbc10c05a	-0.008834923
30	0x3ba87445	0.0051408135
31	0xbca4dd01	-0.020124914
32	0xbc90cecf	-0.017676739
33	0xbbb695d1	-0.0055720587
34	0x3c623780	0.013807178
35	0xbcae5010	-0.021278411
36	0xbcf06626	-0.029345583
37	0x3b1a932c	0.0023586256
38	0xbbe28e05	-0.0069139027
39	0xbc6751c3	-0.014118615
40	0xbcb4e9e1	-0.022084178
41	0xbc71fef4	-0.014770258
42	0x3c19598d	0.0093597295
43	0xbba0524e	-0.004892624
44	0x3c97e1ef	0.01854035
45	0xbc77de84	-0.015128735
46	0xbc871f49	-0.01649441
47	0x3b2bcb7a	0.002621381
48	0xbbc453e6	-0.005991447
49	0xbc245816	-0.010030767
50	0xbb6aa436	-0.0035803444
51	0xbca8ea94	-0.020619668
52	0xbc41782e	-0.011808438
53	0xbc56844d	-0.013093066
54	0xbb914f18	-0.0044344775
55	0xbceedd4c	-0.029158257
56	0x3bb1e145	0.0054284655
57	0x3bea0bb4	0.0071425084
58	0xbc998dd2	-0.018744383
59	0xbce78f49	-0.028266566
60	0xba546016	-0.0008101476
61	0xbb990429	-0.0046696854
62	0xbc895074	-0.016761996
63	0x3981422c	0.000246541
64	0xbc301ec3	-0.010749522
65	0xbc699f38	-0.014259152
66	0x3bf3ff81	0.00744623
67	0xbc19e266	-0.0093923565
68	0x3ad375a0	0.0016133077
69	0x3bc6a464	0.0060620774
70	0x3c33918c	0.010959994
71	0xbca2ff94	-0.01989726
72	0x3ba37978	0.0049888454
73	0xbc8cdbcb	-0.01719465
74	0xbbba66e4	-0.005688535
75	0x3bd8ad60	0.006612465
76	0xbcc36bd8	-0.023855135
77	0xba43cb6d	-0.00074689725
78	0xbcb807f6	-0.022464734
79	0xbb4c8c57	-0.0031211579
80	0x3ca964d7	0.020677967
81	0xbc7b2c9e	-0.015330462
82	0x3bba036e	0.0056766784
83	0xbc29ea89	-0.010370859
84	0xbc64cfee	-0.01396559
85	0xb9ff736e	-0.00048723392
86	0xbcb65b24	-0.022260256
87	0xbba7f70a	-0.005125885
88	0xbbbca246	-0.005756649
89	0x3c6f3886	0.014600879
90	0x3bb16899	0.0054140803
91	0xbc96a082	-0.018387083
92	0xbc6cfbf1	-0.014464364
93	0x3c0b6e0f	0.008510127
94	0xbc90dfde	-0.017684873
95	0xbcabba08	-0.02096273
96	0xbc901d2f	-0.01759204
97	0x3a85a491	0.0010196139
98	0xbbf8b5ff	-0.007590055
99	0xbc1f9408	-0.009739883
100	0xbcdd60d6	-0.027023714
101	0x3bb51e81	0.005527318
102	0xba83ac42	-0.0010045844
103	0x3be3333b	0.0069335974
104	0x3abab273	0.0014243856
105	0xbcc2be2a	-0.023772318
106	0x3b30f6ce	0.0027002576
107	0xbc2b3095	-0.010448595
108	0xbcee75fd	-0.029108996
109	0x3be039e3	0.006842838
110	0x3b4abaae	0.0030934024
111	0x3ae5ac6f	0.0017522703
112	0xbce47156	-0.027886074
113	0xbc90c9bc	-0.01767432
114	0xbcdf132f	-0.027230827
115	0xbc9b5803	-0.018962866
116	0x3b197dfa	0.0023421035
117	0xbbe64f5d	-0.007028504
118	0xbce2b4cc	-0.027674101
119	0x3c0c3490	0.008557454
120	0x3c5faabd	0.013651547
121	0x3b39f7c1	0.0028376433
122	0xbb4ebe7c	-0.0031546643
123	0xbc937fb6	-0.018005233
124	0xbc0e9240	-0.008701861
125	0xbcfb835e	-0.03070229
126	0xbcb74a2a	-0.022374231
127	0x3a8f025c	0.0010910737

action_model._continuous_distribution.log_sigma f4 [1, 2]
0	0xbd8f6c33	-0.07003059
1	0xbdfe0b61	-0.12404514

action_model._continuous_distribution.mu.weight f4 [2, 128]
0	0x3cbe934d	0.023263598
1	0xbbd61c38	-0.0065341257
2	0x3d233b0a	0.039851226
3	0xbbf83130	-0.007574223
4	0xbd3f4935	-0.046700675
5	0x3b87db76	0.004146035
6	0xbbd61a51	-0.006533899
7	0x3c95ef23	0.018302506
8	0x3d2fd09a	0.042923547
9	0xbc96a4ab	-0.018389067
10	0xbba46ce3	-0.005017863
11	0xbc2d19ce	-0.010565234
12	0xbc34e780	-0.011041522
13	0xbad4cbff	-0.0016235112
14	0x3cb06ae8	0.021535352
15	0x3bd25953	0.0064193397
16	0x3b76a19e	0.0037632952
17	0xbce9b0aa	-0.028526623
18	0xbc92c901	-0.017918112
19	0x3b27358d	0.0025514096
20	0x3c498ae6	0.012301182
21	0x3d4d5924	0.05013384
22	0x3cf6f75d	0.030147249
23	0x3b503d7a	0.0031774924
24	0x3bee2c12	0.007268437
25	0xbc2c9c1a	-0.010535264
26	0x3bb2436d	0.0054401667
27	0x3ca7b7c8	0.020473376
28	0x3c1e7523	0.009671482
29	0xbcef7cce	-0.029234316
30	0x3c0341f6	0.008011332
31	0xbad88797	-0.0016519901
32	0x3b80ddb8	0.003932681
33	0xbd10ca02	-0.0353489
34	0xbcc731a0	-0.024315655
35	0xbc61d575	-0.013783802
36	0xbc8a9152	-0.016914997
37	0xbb98d740	-0.0046643317
38	0xbd331030	-0.04371661
39	0xbc6ca0e7	-0.014442659
40	0xbb4f83ae	-0.003166418
41	0xbc8c230e	-0.01710656
42	0x3bd90008	0.006622318
43	0xbcadadc1	-0.021201016
44	0xbcef0892	-0.029178891
45	0x3c24de56	0.010062775
46	0x3ae3087a	0.0017321252
47	0x3cb4ea13	0.022084272
48	0xbcd1378f	-0.025539188
49	0x3cd29fac	0.025710903
50	0x3cf9ef1c	0.030509524
51	0xbc4e2591	-0.012582199
52	0x3d08948b	0.033344787
53	0xbbcec091	-0.006309577
54	0x3c817022	0.01580054
55	0xbc3204fc	-0.010865446
56	0xbd5008f4	-0.05078979
57	0xbbfadeca	-0.007655953
58	0xbbd262c2	-0.0064204643
59	0xbb2ebb1f	-0.0026661826
60	0x3bd9fe92	0.0066526616
61	0xbcb550ed	-0.022133315
62	0x3c594896	0.013261935
63	0xbc5d2f6f	-0.013500079
64	0x3b68e0a7	0.0035534294
65	0xbd29cf0e	-0.04145723
66	0xbc7d1d86	-0.0154489335
67	0x3ce2fb47	0.027707709
68	0x3c18d83e	0.0093289
69	0xbd38b8bf	-0.045098063
70	0x3c8d430a	0.01724388
71	0xbd08593a	-0.033288218
72	0x3bb980fb	0.0056611276
73	0xbc3d32ba	-0.011547739
74	0x3c3f49a4	0.011675272
75	0xbd00121f	-0.03126728
76	0xbc1a3775	-0.009412636
77	0x3cd07f82	0.025451425
78	0xbca45c28	-0.020063475
79	0xbb1239ae	-0.0022312212
80	0x3c328073	0.0108948825
81	0x3c6bac76	0.01438438
82	0x3a166c50	0.0005738186
83	0x3bfbca20	0.0076840073
84	0xbc734d02	-0.014849903
85	0xbca392ed	-0.01996752
86	0xbbdd19bd	-0.006747453
87	0xb695d2b4	-4.465075e-06
88	0xbcf2b729	-0.029628353
89	0xbc9ca034	-0.01911936
90	0x3b9bb25f	0.004751488
91	0x3c3859b4	0.011251856
92	0x3c8519c1	0.016247632
93	0x3c0bb0a6	0.008526003
94	0x3c754f05	0.014972453
95	0xbc5e4d11	-0.013568179
96	0x3c475e92	0.012168543
97	0x3cb21ea2	0.021743122
98	0xbd1f3473	-0.03886838
99	0xbc826722	-0.015918318
100	0xbc502fba	-0.012706691
101	0xbcbaafd2	-0.022788916
102	0xbcb1890b	-0.021671792
103	0x3c4812a2	0.012211474
104	0xbc8f8bc4	-0.0175227
105	0x3c4379fa	0.011930937
106	0xbced6f4f	-0.02898374
107	0xbc88a1b5	-0.01667867
108	0xbba51476	-0.0050378395
109	0xbd1c7f44	-0.038207307
110	0x3cc937de	0.024562772
111	0x3ce8f753	0.028438246
112	0xbbc29e4e	-0.0059392815
113	0xbac962b3	-0.0015364498
114	0xbbd7dd8f	-0.006587691
115	0xbc6c041b	-0.014405276
116	0xbcc53ad5	-0.024075905
117	0x3bf7902b	0.007555028
118	0xbb204434	-0.0024454715
119	0x3c7720eb	0.015083532
120	0x3a2a188e	0.0006488644
121	0x3b06dca9	0.00205783
122	0x3c7659d6	0.015036067
123	0x3c3221cd	0.010872317
124	0x3cff09d5	0.031132618
125	0x392fd1ad	0.00016767411
126	0xbc617ecd	-0.013763142
127	0xbce99ec8	-0.028518096
128	0x3c1ec0cc	0.009689521
129	0xbcc497d6	-0.023998182
130	0x3c015d65	0.007895802
131	0x3c1da482	0.009621741
132	0xbb420e74	-0.0029610666
133	0xbc98c4e8	-0.01864858
134	0xbbf7b654	-0.007559577
135	0xbbbb3bc0	-0.00571391
136	0x3c007dc8	0.007842489
137	0x3c478c75	0.012179484
138	0xbc3489e1	-0.011019201
139	0xbc2980ab	-0.010345618
140	0x3c83ebac	0.016103588
141	0xbc30cb67	-0.010790682
142	0xbcade139	-0.021225559
143	0xbca5b49d	-0.020227725
144	0x3bab5704	0.005228879
145	0x3caa2687	0.020770324
146	0xbc9af8a0	-0.018917382
147	0xbb37f685	-0.002807052
148	0x3bbd265a	0.005772394
149	0x3c8c59f2	0.017132733
150	0xba70f536	-0.0009191813
151	0xba21a086	-0.00061655825
152	0xbba7679c	-0.0051087867
153	0x3c6ac7cb	0.014329861
154	0xbc26e605	-0.010186677
155	0x3c4a06d3	0.012330729
156	0x3c804f62	0.015662853
157	0xb9a2daef	-0.00031062166
158	0xbc8b08f2	-0.016972039
159	0x3c3c0ba3	0.011477384
160	0xbbcb1d6e	-0.0061985767
161	0x3aff6736	0.0019485715
162	0xbcbb021f	-0.02282816
163	0x3c8f46b7	0.017489774
164	0x3b023ba7	0.0019871981
165	0xbcbac046	-0.022796761
166	0x3c7b1a33	0.015326071
167	0x3afc286f	0.0019238124
168	0xbbbbf3e1	-0.0057358597
169	0xbb2ea304	-0.0026647458
170	0xbcdaba27	-0.026700092
171	0xbaf1453b	-0.0018407473
172	0xbc5e2381	-0.0135582695
173	0xbabbc833	-0.0014326632
174	0x3ce7f5aa	0.028315384
175	0xbc93aa69	-0.018025594
176	0x3aa810b6	0.0012822363
177	0x38e539d0	0.00010930339
178	0x3b48da9f	0.0030647886
179	0x3c222c0c	0.009898197
180	0x3c2dde34	0.010612059
181	0xbb8d8c68	-0.0043197162
182	0xbc153316	-0.009106418
183	0x3c9c9c14	0.019117393
184	0xbc95421d	-0.018220002
185	0xbcd76ca6	-0.026296925
186	0x3a3fc26a	0.0007315042
187	0x3bdd00b7	0.00674447
188	0xbcc25a8f	-0.023724822
189	0xbc475443	-0.012166086
190	0x3d09bb83	0.03362609
191	0xbbd21b3b	-0.0064119375
192	0xbc5ce469	-0.013482192
193	0x3d1d545f	0.03841054
194	0xbcca481a	-0.024692584
195	0x3c1c24d2	0.009530263
196	0xba92228b	-0.0011149211
197	0xbc9eee0b	-0.019400617
198	0x3bc62d4b	0.00604788
199	0x3cd7a32e	0.026322927
200	0xbc27736b	-0.010220389
201	0x3b2018e4	0.0024428898
202	0xbc2ff8a0	-0.010740429
203	0xbc19c7f0	-0.009386048
204	0x3b0a2b1a	0.002108282
205	0xbc4e1d97	-0.012580297
206	0xba3ac8dc	-0.00071252673
207	0xba407612	-0.00073418126
208	0x3bd49210	0.0064871386
209	0x3cd0773b	0.025447479
210	0xbca76091	-0.020431789
211	0xbc070820	-0.008241683
212	0xbbd0aeba	-0.0063684853
213	0xbc3771d0	-0.011196569
214	0x3aae7ade	0.0013311764
215	0x3b66a786	0.0035195067
216	0xbc6857f0	-0.014181122
217	0xbc66adfb	-0.014079566
218	0xbca8a38b	-0.020585796
219	0x3c12b265	0.008953665
220	0x3b7da49a	0.0038702847
221	0xbc07fb0e	-0.008299602
222	0x3c6e3875	0.014539828
223	0x3b0e15e1	0.0021680521
224	0xbbc76749	-0.0060853106
225	0xbbe236de	-0.0069035133
226	0x3bfe3b30	0.0077585205
227	0x3aa25d6b	0.001238746
228	0xb9c48c92	-0.00037488766
229	0xbb0e9834	-0.00217582
230	0xbc464ea3	-0.012103709
231	0xbc7d1680	-0.015447259
232	0xbcc8a849	-0.024494307
233	0x3cc2fcb7	0.023802144
234	0x3cae18dc	0.021252088
235	0x3b995192	0.0046789134
236	0xb9c9f4e8	-0.00038520177
237	0xbd15bb41	-0.036555532
238	0xbb97efef	-0.0046367566
239	0xbb911e0a	-0.0044286298
240	0x3b654da1	0.0034988897
241	0xbb17def1	-0.0023173655
242	0x3cc42f3a	0.0239483
243	0x3a9cd055	0.0011963943
244	0xbc83f461	-0.01610774
245	0xbc238e99	-0.009982728
246	0x3c4564a7	0.012047923
247	0xbd1c73e5	-0.038196463
248	0xbd006ef5	-0.031355817
249	0xbc872942	-0.016499165
250	0x3ba41619	0.005007517
251	0xbbcb267b	-0.0061996556
252	0x3c2d75ec	0.010587197
253	0x3c3fcd07	0.011706597
254	0x3b88bdcd	0.0041730166
255	0xbb5480ed	-0.0032425479

action_model._continuous_distribution.mu.bias f4 [2]
0	0xb9b0bcbf	-0.00033709963
1	0xbcaf3602	-0.021388058

action_model._discrete_distribution.branches.0.weight f4 [1, 128]
0	0xbc68e313	-0.014214295
1	0x3abddf90	0.0014486182
2	0xbbd7a59f	-0.006581023
3	0x3c244e4f	0.010028436
4	0x3c36ebc9	0.011164614
5	0x3b91a3c8	0.004444573
6	0x39903dbb	0.00027511813
7	0x3c2e0c09	0.010622987
8	0x3b19d0a4	0.0023470307
9	0x3919c530	0.00014664675
10	0x3c19355b	0.0093511
11	0xbc989653	-0.018626368
12	0x3be78be3	0.0070662363
13	0xbb3f2880	-0.0029168427
14	0x3c706a8b	0.014673839
15	0x3adaf47a	0.001670494
16	0x3c301a6f	0.01074849
17	0xbb2daa3b	-0.002649917
18	0x3c749e28	0.0149302855
19	0x3c3de9b7	0.0115913665
20	0x3b04b657	0.0020250285
21	0xbbf1da60	-0.0073807687
22	0xbc1a615f	-0.009422629
23	0xbab7bbb7	-0.0014017735
24	0x3b31087f	0.002701312
25	0x3b11fd59	0.002227625
26	0x3b98f5f1	0.0046679904
27	0x3bd33f18	0.0064467303
28	0xbab218ac	-0.0013587675
29	0x3a13a237	0.0005631777
30	0x3c176144	0.0092394985
31	0xbb9f2648	-0.0048568584
32	0x3aaca681	0.0013172181
33	0xbc1917fc	-0.009344097
34	0x3c77611d	0.015098837
35	0xbba4b9bc	-0.005027024
36	0xba75a463	-0.0009370504
37	0xbbb984b8	-0.0056615733
38	0x3be8e3fa	0.007107255
39	0xbb9e008b	-0.004821842
40	0x3c2f390c	0.010694753
41	0x3b6f7a9b	0.0036541584
42	0x36f85dd5	7.4018994e-06
43	0x3b636203	0.003469587
44	0x3b8f8568	0.004379917
45	0xbbfcb173	-0.0077115833
46	0xbb56ca5d	-0.0032774427
47	0x3a74505a	0.00093198346
48	0xbbceb8bf	-0.0063086445
49	0xbbd0de9a	-0.0063741924
50	0xba12411b	-0.00055791595
51	0xba2800ae	-0.00064087927
52	0x3b29bb73	0.0025899082
53	0xbc9ee843	-0.01939786
54	0x3b114e63	0.0022171966
55	0xbcb4b319	-0.022058057
56	0xbc8f4537	-0.017489059
57	0xbc188a8e	-0.009310378
58	0x3a762eb5	0.0009391115
59	0x3a49c4ea	0.0007696884
60	0xbca78e54	-0.02045361
61	0x3bd38d1f	0.006456032
62	0x3bd95390	0.006632276
63	0xba48b2f7	-0.00076560624
64	0xbb2f820c	-0.0026780395
65	0x3c19cfaf	0.0093878945
66	0xbc0491f8	-0.008091442
67	0xbbe121e3	-0.0068704947
68	0xbb4d5f5b	-0.0031337354
69	0xbc063bb0	-0.008192942
70	0x3b9ab0b7	0.004720773
71	0xbc0d01ff	-0.008606433
72	0x3bc53de7	0.006019342
73	0xbb017737	-0.0019754895
74	0xbb9c3a72	-0.0047677094
75	0xbbadf15c	-0.0053083133
76	0xbbb71bb5	-0.0055880197
77	0x387b3cef	5.9899812e-05
78	0x3b29e4cf	0.0025923734
79	0x3c214e4f	0.00984533
80	0xbc1949ca	-0.009355972
81	0x3a07d714	0.00051818904
82	0xbc24400f	-0.010025038
83	0x3c6741d8	0.0141148195
84	0xba847181	-0.0010104628
85	0x3c23728b	0.00997604
86	0xbb477d1d	-0.0030439564
87	0xbbcdc4dd	-0.0062795714
88	0x3bbe7a12	0.0058128918
89	0xbb09a14f	-0.0021000688
90	0xbc1a8bdd	-0.00943276
91	0xbbfa5537	-0.007639553
92	0xbbc0e0a8	-0.005886156
93	0x3bd974df	0.0066362466
94	0x3caaf981	0.020870926
95	0x3b459d60	0.0030153617
96	0xbc1fd013	-0.009754199
97	0x3c22b74a	0.009931395
98	0x3c6cb05b	0.014446343
99	0xbcbe5713	-0.02323488
100	0x3ac5d0f2	0.0015092178
101	0xbb468f87	-0.0030297951
102	0x3b72f247	0.0037070678
103	0xbc289cb0	-0.010291263
104	0x3bec4f18	0.007211577
105	0x3afbdb08	0.0019215057
106	0x3bcdfb67	0.006286073
107	0xbc8b6f27	-0.017020775
108	0x3bc05339	0.005869296
109	0xbc2bdef1	-0.010490165
110	0x3add3710	0.0016877372
111	0x3b728c0a	0.003700974
112	0xbc0109a7	-0.007875836
113	0x3c68c440	0.014206946
114	0xb9cce6ba	-0.00039081817
115	0xbb8b05cc	-0.0042426344
116	0x3b8a1a6f	0.004214577
117	0x3c35de54	0.01110037
118	0xbc16d564	-0.00920615
119	0x3c365360	0.011128277
120	0x3a3de79a	0.0007244289
121	0xbbcf5873	-0.0063276826
122	0xbb820f8b	-0.003969138
123	0x3c0243a7	0.0079507
124	0xbb990577	-0.004669841
125	0xbc50122a	-0.012699643
126	0x3a95019b	0.0011368276
127	0xbc5940e3	-0.013260099

onnx::Div_70 f4 [8]
0	0x40e38893	7.1104217
1	0x3fea580e	1.8308122
2	0x40d14c49	6.540562
3	0x4104b6bf	8.294616
4	0x3cf55950	0.029949814
5	0x40719c34	3.775159
6	0x3e879955	0.2648417
7	0x3eb2448c	0.34817922
